…
mpool5 (MaxPooling2D)        (None, 9, None, 256)      0
_________________________________________________________________
pad6 (ZeroPadding2D)         (None, 9, None, 256)      0
_________________________________________________________________
fc6 (Conv2D)                 (None, 1, None, 4096)     9441280
_________________________________________________________________
bn6 (BatchNormalization)     (None, 1, None, 4096)     16384
_________________________________________________________________
relu6 (Activation)           (None, 1, None, 4096)     0
_________________________________________________________________
gapool6 (GlobalAveragePoolin (None, 4096)              0
_________________________________________________________________
reshape6 (Reshape)           (None, 1, 1, 4096)        0
_________________________________________________________________
pad7 (ZeroPadding2D)         (None, 1, 1, 4096)        0
_________________________________________________________________
fc7 (Conv2D)                 (None, 1, 1, 1024)        4195328
_________________________________________________________________
bn7 (BatchNormalization)     (None, 1, 1, 1024)        4096
_________________________________________________________________
relu7 (Activation)           (None, 1, 1, 1024)        0
_________________________________________________________________
norm (Lambda)                (None, 1, 1, 1024)        0
_________________________________________________________________
fc8 (Conv2D)                 (None, 1, 1, 1024)        1049600
=================================================================
Total params: 17,691,328
Trainable params: 17,678,592
Non-trainable params: 12,736
